Time: 0415-2016, device:cpu
Time spent: 97.89 seconds, Number of epochs: 2, Learning rate: 0.001, Model kernel size: 3, Model padding: 1, Model dropout: 0.2
train_losses: ['1.5975', '1.1483']
val_losses: ['1.3743', '1.0134']
train_accuracies: ['0.5000', '0.6562']
val_accuracies: ['0.5000', '0.5625']
Model network: Sequential(
  (0): Conv2d(3, 6, kernel_size=(3, 3), stride=(1, 1), padding=(1, 1))
  (1): ReLU()
  (2): Conv2d(6, 12, kernel_size=(3, 3), stride=(1, 1), padding=(1, 1))
  (3): ReLU()
  (4): MaxPool2d(kernel_size=2, stride=2, padding=0, dilation=1, ceil_mode=False)
  (5): Dropout(p=0.2, inplace=False)
  (6): Conv2d(12, 24, kernel_size=(3, 3), stride=(1, 1), padding=(1, 1))
  (7): ReLU()
  (8): Conv2d(24, 32, kernel_size=(3, 3), stride=(1, 1), padding=(1, 1))
  (9): ReLU()
  (10): MaxPool2d(kernel_size=2, stride=2, padding=0, dilation=1, ceil_mode=False)
  (11): Dropout(p=0.2, inplace=False)
  (12): Conv2d(32, 64, kernel_size=(3, 3), stride=(1, 1), padding=(1, 1))
  (13): ReLU()
  (14): Conv2d(64, 128, kernel_size=(3, 3), stride=(1, 1), padding=(1, 1))
  (15): ReLU()
  (16): MaxPool2d(kernel_size=2, stride=2, padding=0, dilation=1, ceil_mode=False)
  (17): Dropout(p=0.2, inplace=False)
  (18): BatchNorm2d(128, eps=1e-05, momentum=0.1, affine=True, track_running_stats=True)
  (19): Flatten(start_dim=1, end_dim=-1)
  (20): Linear(in_features=2048, out_features=1024, bias=True)
  (21): ReLU()
  (22): Linear(in_features=1024, out_features=512, bias=True)
  (23): ReLU()
  (24): Linear(in_features=512, out_features=10, bias=True)
)
------------------------------------
Time: 0415-2021, device:cpu
Time spent: 52.55 seconds, Number of epochs: 1, Learning rate: 0.001, 
Model kernel size: 3, Model padding: 1, Model dropout: 0.2
train_losses: ['1.5692']
val_losses: ['1.2051']
train_accuracies: ['0.5781']
val_accuracies: ['0.5625']
Model network: Sequential(
  (0): Conv2d(3, 6, kernel_size=(3, 3), stride=(1, 1), padding=(1, 1))
  (1): ReLU()
  (2): Conv2d(6, 12, kernel_size=(3, 3), stride=(1, 1), padding=(1, 1))
  (3): ReLU()
  (4): MaxPool2d(kernel_size=2, stride=2, padding=0, dilation=1, ceil_mode=False)
  (5): Dropout(p=0.2, inplace=False)
  (6): Conv2d(12, 24, kernel_size=(3, 3), stride=(1, 1), padding=(1, 1))
  (7): ReLU()
  (8): Conv2d(24, 32, kernel_size=(3, 3), stride=(1, 1), padding=(1, 1))
  (9): ReLU()
  (10): MaxPool2d(kernel_size=2, stride=2, padding=0, dilation=1, ceil_mode=False)
  (11): Dropout(p=0.2, inplace=False)
  (12): Conv2d(32, 64, kernel_size=(3, 3), stride=(1, 1), padding=(1, 1))
  (13): ReLU()
  (14): Conv2d(64, 128, kernel_size=(3, 3), stride=(1, 1), padding=(1, 1))
  (15): ReLU()
  (16): MaxPool2d(kernel_size=2, stride=2, padding=0, dilation=1, ceil_mode=False)
  (17): Dropout(p=0.2, inplace=False)
  (18): BatchNorm2d(128, eps=1e-05, momentum=0.1, affine=True, track_running_stats=True)
  (19): Flatten(start_dim=1, end_dim=-1)
  (20): Linear(in_features=2048, out_features=1024, bias=True)
  (21): ReLU()
  (22): Linear(in_features=1024, out_features=512, bias=True)
  (23): ReLU()
  (24): Linear(in_features=512, out_features=10, bias=True)
)
------------------------------------
Time: 0415-2023, device:cpu
Time spent: 54.78 seconds, Number of epochs: 1, Learning rate: 0.001, 
Model kernel size: 3, Model padding: 1, Model dropout: 0.2
train_losses: ['1.5755']
val_losses: ['0.9714']
train_accuracies: ['0.6094']
val_accuracies: ['0.5625']
Model network: Sequential(
  (0): Conv2d(3, 6, kernel_size=(3, 3), stride=(1, 1), padding=(1, 1))
  (1): ReLU()
  (2): Conv2d(6, 12, kernel_size=(3, 3), stride=(1, 1), padding=(1, 1))
  (3): ReLU()
  (4): MaxPool2d(kernel_size=2, stride=2, padding=0, dilation=1, ceil_mode=False)
  (5): Dropout(p=0.2, inplace=False)
  (6): Conv2d(12, 24, kernel_size=(3, 3), stride=(1, 1), padding=(1, 1))
  (7): ReLU()
  (8): Conv2d(24, 32, kernel_size=(3, 3), stride=(1, 1), padding=(1, 1))
  (9): ReLU()
  (10): MaxPool2d(kernel_size=2, stride=2, padding=0, dilation=1, ceil_mode=False)
  (11): Dropout(p=0.2, inplace=False)
  (12): Conv2d(32, 64, kernel_size=(3, 3), stride=(1, 1), padding=(1, 1))
  (13): ReLU()
  (14): Conv2d(64, 128, kernel_size=(3, 3), stride=(1, 1), padding=(1, 1))
  (15): ReLU()
  (16): MaxPool2d(kernel_size=2, stride=2, padding=0, dilation=1, ceil_mode=False)
  (17): Dropout(p=0.2, inplace=False)
  (18): BatchNorm2d(128, eps=1e-05, momentum=0.1, affine=True, track_running_stats=True)
  (19): Flatten(start_dim=1, end_dim=-1)
  (20): Linear(in_features=2048, out_features=1024, bias=True)
  (21): ReLU()
  (22): Linear(in_features=1024, out_features=512, bias=True)
  (23): ReLU()
  (24): Linear(in_features=512, out_features=10, bias=True)
)
------------------------------------
Time: 0415-2024, device:cpu
Time spent: 52.12 seconds, Number of epochs: 1, Learning rate: 0.001, 
Model kernel size: 3, Model padding: 1, Model dropout: 0.2
train_losses: ['1.5616']
val_losses: ['1.1755']
train_accuracies: ['0.5312']
val_accuracies: ['0.5000']
Model network: Sequential(
  (0): Conv2d(3, 6, kernel_size=(3, 3), stride=(1, 1), padding=(1, 1))
  (1): ReLU()
  (2): Conv2d(6, 12, kernel_size=(3, 3), stride=(1, 1), padding=(1, 1))
  (3): ReLU()
  (4): MaxPool2d(kernel_size=2, stride=2, padding=0, dilation=1, ceil_mode=False)
  (5): Dropout(p=0.2, inplace=False)
  (6): Conv2d(12, 24, kernel_size=(3, 3), stride=(1, 1), padding=(1, 1))
  (7): ReLU()
  (8): Conv2d(24, 32, kernel_size=(3, 3), stride=(1, 1), padding=(1, 1))
  (9): ReLU()
  (10): MaxPool2d(kernel_size=2, stride=2, padding=0, dilation=1, ceil_mode=False)
  (11): Dropout(p=0.2, inplace=False)
  (12): Conv2d(32, 64, kernel_size=(3, 3), stride=(1, 1), padding=(1, 1))
  (13): ReLU()
  (14): Conv2d(64, 128, kernel_size=(3, 3), stride=(1, 1), padding=(1, 1))
  (15): ReLU()
  (16): MaxPool2d(kernel_size=2, stride=2, padding=0, dilation=1, ceil_mode=False)
  (17): Dropout(p=0.2, inplace=False)
  (18): BatchNorm2d(128, eps=1e-05, momentum=0.1, affine=True, track_running_stats=True)
  (19): Flatten(start_dim=1, end_dim=-1)
  (20): Linear(in_features=2048, out_features=1024, bias=True)
  (21): ReLU()
  (22): Linear(in_features=1024, out_features=512, bias=True)
  (23): ReLU()
  (24): Linear(in_features=512, out_features=10, bias=True)
)
------------------------------------
Time: 0415-2116, device:cpu
Time spent: 49.58 seconds, Number of epochs: 1, Learning rate: 0.001, 
Model kernel size: 3, Model padding: 1, Model dropout: 0.2
train_losses: ['1.6043']
val_losses: ['1.2703']
train_accuracies: ['0.4121']
val_accuracies: ['0.5223']
Model network: Sequential(
  (0): Conv2d(3, 6, kernel_size=(3, 3), stride=(1, 1), padding=(1, 1))
  (1): ReLU()
  (2): Conv2d(6, 12, kernel_size=(3, 3), stride=(1, 1), padding=(1, 1))
  (3): ReLU()
  (4): MaxPool2d(kernel_size=2, stride=2, padding=0, dilation=1, ceil_mode=False)
  (5): Dropout(p=0.2, inplace=False)
  (6): Conv2d(12, 24, kernel_size=(3, 3), stride=(1, 1), padding=(1, 1))
  (7): ReLU()
  (8): Conv2d(24, 32, kernel_size=(3, 3), stride=(1, 1), padding=(1, 1))
  (9): ReLU()
  (10): MaxPool2d(kernel_size=2, stride=2, padding=0, dilation=1, ceil_mode=False)
  (11): Dropout(p=0.2, inplace=False)
  (12): Conv2d(32, 64, kernel_size=(3, 3), stride=(1, 1), padding=(1, 1))
  (13): ReLU()
  (14): Conv2d(64, 128, kernel_size=(3, 3), stride=(1, 1), padding=(1, 1))
  (15): ReLU()
  (16): MaxPool2d(kernel_size=2, stride=2, padding=0, dilation=1, ceil_mode=False)
  (17): Dropout(p=0.2, inplace=False)
  (18): BatchNorm2d(128, eps=1e-05, momentum=0.1, affine=True, track_running_stats=True)
  (19): Flatten(start_dim=1, end_dim=-1)
  (20): Linear(in_features=2048, out_features=1024, bias=True)
  (21): ReLU()
  (22): Linear(in_features=1024, out_features=512, bias=True)
  (23): ReLU()
  (24): Linear(in_features=512, out_features=10, bias=True)
)
------------------------------------
Time: 0415-2204, device:cpu
Time spent: 49.08 seconds, Number of epochs: 1, Learning rate: 0.001, 
Model kernel size: 3, Model padding: 1, Model dropout: 0.2
train_losses: ['1.5643']
val_losses: ['1.2662']
train_accuracies: ['0.4248']
val_accuracies: ['0.4964']
airplane: [734, 36, 20, 4, 12, 9, 13, 24, 38, 83], accuracy: 0.7543679342240494
…
bird: [114, 11, 182, 34, 206, 72, 242, 54, 22, 69], accuracy: 0.18091451292246521
cat: [41, 10, 27, 91, 69, 185, 328, 70, 23, 123], accuracy: 0.09410548086866598
deer: [47, 11, 25, 11, 310, 25, 323, 171, 7, 33], accuracy: 0.32191069574247144
dog: [18, 12, 18, 47, 84, 409, 220, 119, 8, 89], accuracy: 0.3994140625
frog: [20, 8, 9, 12, 46, 21, 819, 23, 5, 62], accuracy: 0.7990243902439025
horse: [25, 8, 6, 14, 62, 65, 122, 625, 5, 103], accuracy: 0.6038647342995169
ship: [335, 82, 4, 6, 3, 5, 9, 7, 396, 151], accuracy: 0.3967935871743487
truck: [70, 117, 2, 1, 1, 1, 34, 25, 2, 746], accuracy: 0.7467467467467468
Total acc: 0.0004942686699177613
Model network: Sequential(
  (0): Conv2d(3, 6, kernel_size=(3, 3), stride=(1, 1), padding=(1, 1))
  (1): ReLU()
  (2): Conv2d(6, 12, kernel_size=(3, 3), stride=(1, 1), padding=(1, 1))
  (3): ReLU()
  (4): MaxPool2d(kernel_size=2, stride=2, padding=0, dilation=1, ceil_mode=False)
  (5): Dropout(p=0.2, inplace=False)
  (6): Conv2d(12, 24, kernel_size=(3, 3), stride=(1, 1), padding=(1, 1))
  (7): ReLU()
  (8): Conv2d(24, 32, kernel_size=(3, 3), stride=(1, 1), padding=(1, 1))
  (9): ReLU()
  (10): MaxPool2d(kernel_size=2, stride=2, padding=0, dilation=1, ceil_mode=False)
  (11): Dropout(p=0.2, inplace=False)
  (12): Conv2d(32, 64, kernel_size=(3, 3), stride=(1, 1), padding=(1, 1))
  (13): ReLU()
  (14): Conv2d(64, 128, kernel_size=(3, 3), stride=(1, 1), padding=(1, 1))
  (15): ReLU()
  (16): MaxPool2d(kernel_size=2, stride=2, padding=0, dilation=1, ceil_mode=False)
  (17): Dropout(p=0.2, inplace=False)
  (18): BatchNorm2d(128, eps=1e-05, momentum=0.1, affine=True, track_running_stats=True)
  (19): Flatten(start_dim=1, end_dim=-1)
  (20): Linear(in_features=2048, out_features=1024, bias=True)
  (21): ReLU()
  (22): Linear(in_features=1024, out_features=512, bias=True)
  (23): ReLU()
  (24): Linear(in_features=512, out_features=10, bias=True)
)
------------------------------------
Time: 0416-1742, device:cuda
Time spent: 16.38 seconds, Number of epochs: 1, Learning rate: 0.001, 
Model kernel size: 3, Model padding: 1, Model dropout: 0.2
train_losses: ['1.5388']
val_losses: ['0.8369']
train_accuracies: ['0.4350']
val_accuracies: ['0.5667']
airplane(973): [575, 43, 91, 36, 12, 10, 10, 21, 120, 55], accuracy: 0.5910
…
bird(1006): [57, 1, 615, 54, 105, 82, 53, 33, 4, 2], accuracy: 0.6113
cat(967): [15, 5, 51, 401, 59, 323, 47, 48, 7, 11], accuracy: 0.4147
deer(963): [12, 4, 46, 33, 717, 40, 30, 76, 3, 2], accuracy: 0.7445
dog(1024): [3, 1, 24, 80, 45, 807, 14, 48, 0, 2], accuracy: 0.7881
frog(1025): [4, 2, 28, 42, 39, 55, 839, 6, 7, 3], accuracy: 0.8185
horse(1035): [4, 1, 22, 26, 57, 71, 1, 846, 1, 6], accuracy: 0.8174
ship(998): [70, 28, 10, 13, 10, 7, 8, 1, 827, 24], accuracy: 0.8287
truck(999): [10, 47, 7, 23, 5, 13, 8, 16, 11, 859], accuracy: 0.8599
---------------VALIDATION----------------
Total acc: 0.0, Num of data: 10000
Model network: Sequential(
  (0): Conv2d(3, 6, kernel_size=(3, 3), stride=(1, 1), padding=(1, 1))
  (1): ReLU()
  (2): Conv2d(6, 16, kernel_size=(3, 3), stride=(1, 1), padding=(1, 1))
  (3): ReLU()
  (4): MaxPool2d(kernel_size=2, stride=2, padding=0, dilation=1, ceil_mode=False)
  (5): Dropout(p=0.2, inplace=False)
  (6): Conv2d(16, 32, kernel_size=(3, 3), stride=(1, 1), padding=(1, 1))
  (7): ReLU()
  (8): Conv2d(32, 64, kernel_size=(3, 3), stride=(1, 1), padding=(1, 1))
  (9): ReLU()
  (10): MaxPool2d(kernel_size=2, stride=2, padding=0, dilation=1, ceil_mode=False)
  (11): Dropout(p=0.2, inplace=False)
  (12): Conv2d(64, 128, kernel_size=(3, 3), stride=(1, 1), padding=(1, 1))
  (13): ReLU()
  (14): Conv2d(128, 256, kernel_size=(3, 3), stride=(1, 1), padding=(1, 1))
  (15): ReLU()
  (16): MaxPool2d(kernel_size=2, stride=2, padding=0, dilation=1, ceil_mode=False)
  (17): Dropout(p=0.2, inplace=False)
  (18): BatchNorm2d(256, eps=1e-05, momentum=0.1, affine=True, track_running_stats=True)
  (19): Flatten(start_dim=1, end_dim=-1)
  (20): Linear(in_features=4096, out_features=1024, bias=True)
  (21): ReLU()
  (22): Linear(in_features=1024, out_features=512, bias=True)
  (23): ReLU()
  (24): Linear(in_features=512, out_features=10, bias=True)
)
------------------------------------
Time: 0416-1800, device:cuda
Time spent: 243.98 seconds, Number of epochs: 15, Learning rate: 0.001, 
Model kernel size: 3, Model padding: 1, Model dropout: 0.2
train_losses: ['1.5421', '1.1449', '0.9355', '0.7936', '0.6802', '0.5819', '0.4983', '0.4202', '0.3544', '0.3094', '0.2619', '0.2247', '0.2085', '0.1777', '0.1627']
…
bird(1006): [60, 3, 582, 33, 140, 36, 110, 29, 10, 3], accuracy: 0.5785
cat(967): [11, 6, 60, 407, 119, 106, 174, 56, 17, 11], accuracy: 0.4209
deer(963): [19, 2, 22, 24, 781, 4, 62, 43, 3, 3], accuracy: 0.8110
dog(1024): [7, 4, 38, 147, 113, 539, 96, 68, 4, 8], accuracy: 0.5264
frog(1025): [2, 3, 18, 21, 57, 5, 905, 4, 4, 6], accuracy: 0.8829
horse(1035): [6, 0, 20, 34, 113, 29, 17, 806, 2, 8], accuracy: 0.7787
ship(998): [84, 15, 15, 10, 6, 0, 16, 4, 837, 11], accuracy: 0.8387
truck(999): [19, 65, 4, 24, 9, 1, 22, 8, 14, 833], accuracy: 0.8338
---------------VALIDATION----------------
Total acc: 0.7361, Num of data: 10000
Model network: Sequential(
  (0): Conv2d(3, 6, kernel_size=(3, 3), stride=(1, 1), padding=(1, 1))
  (1): ReLU()
  (2): Conv2d(6, 16, kernel_size=(3, 3), stride=(1, 1), padding=(1, 1))
  (3): ReLU()
  (4): MaxPool2d(kernel_size=2, stride=2, padding=0, dilation=1, ceil_mode=False)
  (5): Dropout(p=0.25, inplace=False)
  (6): Conv2d(16, 32, kernel_size=(3, 3), stride=(1, 1), padding=(1, 1))
  (7): ReLU()
  (8): Conv2d(32, 64, kernel_size=(3, 3), stride=(1, 1), padding=(1, 1))
  (9): ReLU()
  (10): MaxPool2d(kernel_size=2, stride=2, padding=0, dilation=1, ceil_mode=False)
  (11): Dropout(p=0.25, inplace=False)
  (12): Conv2d(64, 128, kernel_size=(3, 3), stride=(1, 1), padding=(1, 1))
  (13): ReLU()
  (14): Conv2d(128, 256, kernel_size=(3, 3), stride=(1, 1), padding=(1, 1))
  (15): ReLU()
  (16): MaxPool2d(kernel_size=2, stride=2, padding=0, dilation=1, ceil_mode=False)
  (17): Dropout(p=0.25, inplace=False)
  (18): Flatten(start_dim=1, end_dim=-1)
  (19): Linear(in_features=4096, out_features=1024, bias=True)
  (20): ReLU()
  (21): Linear(in_features=1024, out_features=512, bias=True)
  (22): ReLU()
  (23): Linear(in_features=512, out_features=10, bias=True)
)
------------------------------------
Time: 0416-1837, device:cuda
Time spent: 16.52 seconds, Number of epochs: 1, Learning rate: 0.1, 
Model kernel size: 3, Model padding: 1, Model dropout: 0.25
train_losses: ['1098454.1483']
val_losses: ['2.3496']
train_accuracies: ['0.0987']
val_accuracies: ['0.0998']
learning_rate: ['0.1']
scheduler: StepLR
airplane(973): [0, 0, 0, 0, 0, 0, 0, 0, 973, 0], accuracy: 0.0000
…
bird(1006): [36, 6, 707, 55, 85, 28, 51, 19, 14, 5], accuracy: 0.7028
cat(967): [19, 2, 65, 532, 69, 153, 64, 37, 21, 5], accuracy: 0.5502
deer(963): [18, 1, 37, 48, 756, 26, 23, 38, 12, 4], accuracy: 0.7850
dog(1024): [5, 4, 42, 178, 55, 652, 31, 48, 3, 6], accuracy: 0.6367
frog(1025): [5, 7, 28, 41, 31, 16, 887, 1, 6, 3], accuracy: 0.8654
horse(1035): [7, 5, 34, 40, 64, 49, 7, 820, 2, 7], accuracy: 0.7923
ship(998): [52, 21, 8, 12, 4, 0, 4, 3, 876, 18], accuracy: 0.8778
truck(999): [21, 52, 10, 13, 6, 6, 14, 8, 23, 846], accuracy: 0.8468
---------------VALIDATION----------------
Total acc: 0.7717, Num of data: 10000
Model network: Sequential(
  (0): Conv2d(3, 6, kernel_size=(3, 3), stride=(1, 1), padding=(1, 1))
  (1): BatchNorm2d(6, eps=1e-05, momentum=0.1, affine=True, track_running_stats=True)
  (2): Conv2d(6, 16, kernel_size=(3, 3), stride=(1, 1), padding=(1, 1))
  (3): BatchNorm2d(16, eps=1e-05, momentum=0.1, affine=True, track_running_stats=True)
  (4): MaxPool2d(kernel_size=2, stride=2, padding=0, dilation=1, ceil_mode=False)
  (5): Dropout(p=0.2, inplace=False)
  (6): Conv2d(16, 32, kernel_size=(3, 3), stride=(1, 1), padding=(1, 1))
  (7): BatchNorm2d(32, eps=1e-05, momentum=0.1, affine=True, track_running_stats=True)
  (8): Conv2d(32, 64, kernel_size=(3, 3), stride=(1, 1), padding=(1, 1))
  (9): BatchNorm2d(64, eps=1e-05, momentum=0.1, affine=True, track_running_stats=True)
  (10): MaxPool2d(kernel_size=2, stride=2, padding=0, dilation=1, ceil_mode=False)
  (11): Dropout(p=0.2, inplace=False)
  (12): Conv2d(64, 128, kernel_size=(3, 3), stride=(1, 1), padding=(1, 1))
  (13): BatchNorm2d(128, eps=1e-05, momentum=0.1, affine=True, track_running_stats=True)
  (14): Conv2d(128, 256, kernel_size=(3, 3), stride=(1, 1), padding=(1, 1))
  (15): BatchNorm2d(256, eps=1e-05, momentum=0.1, affine=True, track_running_stats=True)
  (16): MaxPool2d(kernel_size=2, stride=2, padding=0, dilation=1, ceil_mode=False)
  (17): Dropout(p=0.2, inplace=False)
  (18): Flatten(start_dim=1, end_dim=-1)
  (19): Linear(in_features=4096, out_features=1024, bias=True)
  (20): ReLU()
  (21): Linear(in_features=1024, out_features=512, bias=True)
  (22): ReLU()
  (23): Linear(in_features=512, out_features=10, bias=True)
)
------------------------------------
Time: 0416-2112, device:cuda
Time spent: 339.48 seconds, Number of epochs: 20, Learning rate: 0.001, 
Model kernel size: 3, Model padding: 1, Model dropout: 0.2
train_losses: ['1.5183', '1.1515', '1.0219', '0.9322', '0.8824', '0.6921', '0.6360', '0.6059', '0.5800', '0.5523', '0.5008', '0.4881', '0.4831', '0.4760', '0.4689', '0.4672', '0.4583', '0.4556', '0.4514', '0.4477']
…
bird(1006): [54, 0, 686, 40, 74, 47, 61, 30, 8, 6], accuracy: 0.6819
cat(967): [19, 2, 47, 586, 47, 145, 54, 34, 15, 18], accuracy: 0.6060
deer(963): [14, 1, 42, 46, 749, 22, 20, 59, 4, 6], accuracy: 0.7778
dog(1024): [6, 2, 31, 156, 29, 724, 22, 47, 2, 5], accuracy: 0.7070
frog(1025): [2, 2, 28, 30, 20, 16, 911, 6, 6, 4], accuracy: 0.8888
horse(1035): [7, 3, 11, 33, 38, 40, 3, 890, 3, 7], accuracy: 0.8599
ship(998): [43, 14, 1, 11, 4, 0, 4, 3, 906, 12], accuracy: 0.9078
truck(999): [26, 35, 2, 10, 1, 2, 9, 3, 18, 893], accuracy: 0.8939
---------------VALIDATION----------------
Total acc: 0.8029, Num of data: 10000
Model network: Sequential(
  (0): Conv2d(3, 6, kernel_size=(5, 5), stride=(1, 1), padding=(1, 1))
  (1): ReLU()
  (2): BatchNorm2d(6, eps=1e-05, momentum=0.1, affine=True, track_running_stats=True)
  (3): Conv2d(6, 16, kernel_size=(5, 5), stride=(1, 1), padding=(1, 1))
  (4): ReLU()
  (5): BatchNorm2d(16, eps=1e-05, momentum=0.1, affine=True, track_running_stats=True)
  (6): MaxPool2d(kernel_size=2, stride=2, padding=0, dilation=1, ceil_mode=False)
  (7): Dropout(p=0.25, inplace=False)
  (8): Conv2d(16, 32, kernel_size=(5, 5), stride=(1, 1), padding=(1, 1))
  (9): ReLU()
  (10): BatchNorm2d(32, eps=1e-05, momentum=0.1, affine=True, track_running_stats=True)
  (11): Conv2d(32, 64, kernel_size=(5, 5), stride=(1, 1), padding=(1, 1))
  (12): ReLU()
  (13): BatchNorm2d(64, eps=1e-05, momentum=0.1, affine=True, track_running_stats=True)
  (14): MaxPool2d(kernel_size=2, stride=2, padding=0, dilation=1, ceil_mode=False)
  (15): Dropout(p=0.25, inplace=False)
  (16): Conv2d(64, 128, kernel_size=(5, 5), stride=(1, 1), padding=(1, 1))
  (17): ReLU()
  (18): BatchNorm2d(128, eps=1e-05, momentum=0.1, affine=True, track_running_stats=True)
  (19): Conv2d(128, 256, kernel_size=(5, 5), stride=(1, 1), padding=(1, 1))
  (20): ReLU()
  (21): BatchNorm2d(256, eps=1e-05, momentum=0.1, affine=True, track_running_stats=True)
  (22): MaxPool2d(kernel_size=2, stride=2, padding=0, dilation=1, ceil_mode=False)
  (23): Dropout(p=0.35, inplace=False)
  (24): Flatten(start_dim=1, end_dim=-1)
  (25): Linear(in_features=4096, out_features=1024, bias=True)
  (26): ReLU()
  (27): Dropout(p=0.35, inplace=False)
  (28): Linear(in_features=1024, out_features=512, bias=True)
  (29): ReLU()
  (30): Dropout(p=0.45, inplace=False)
  (31): Linear(in_features=512, out_features=10, bias=True)
)
------------------------------------
Time: 0418-1012, device:cuda
Time spent: 718.11 seconds, Number of epochs: 40, Learning rate: 0.001, 
Model kernel size: 5, Model padding: 2, Model dropout: 0.25
train_losses: ['1.6087', '1.2173', '1.0338', '0.9142', '0.8378', '0.7788', '0.7334', '0.6957', '0.6713', '0.6398', '0.6296', '0.4644', '0.4110', '0.3832', '0.3567', '0.3343', '0.3138', '0.2975', '0.2823', '0.2659', '0.2514', '0.2348', '0.2202', '0.2122', '0.1959', '0.1929', '0.1804', '0.1699', '0.1601', '0.1540', '0.1343', '0.1227', '0.1205', '0.1173', '0.1142', '0.1104', '0.1096', '0.1087', '0.1060', '0.1042']
…
bird(1006): [35, 4, 787, 41, 46, 34, 36, 12, 8, 3], accuracy: 0.7823
cat(967): [15, 2, 47, 642, 42, 129, 55, 19, 10, 6], accuracy: 0.6639
deer(963): [12, 0, 35, 38, 806, 19, 23, 25, 2, 3], accuracy: 0.8370
dog(1024): [2, 2, 30, 144, 33, 759, 26, 24, 1, 3], accuracy: 0.7412
frog(1025): [2, 3, 26, 17, 17, 9, 946, 0, 3, 2], accuracy: 0.9229
horse(1035): [6, 2, 17, 24, 34, 28, 5, 910, 2, 7], accuracy: 0.8792
ship(998): [15, 5, 3, 4, 2, 1, 1, 1, 951, 15], accuracy: 0.9529
truck(999): [10, 39, 2, 5, 3, 2, 6, 2, 13, 917], accuracy: 0.9179
---------------VALIDATION----------------
Total acc: 0.8472, Num of data: 10000
Model network: Sequential(
  (0): Conv2d(3, 6, kernel_size=(5, 5), stride=(1, 1), padding=(2, 2))
  (1): ReLU()
  (2): BatchNorm2d(6, eps=1e-05, momentum=0.1, affine=True, track_running_stats=True)
  (3): Conv2d(6, 16, kernel_size=(5, 5), stride=(1, 1), padding=(2, 2))
  (4): ReLU()
  (5): BatchNorm2d(16, eps=1e-05, momentum=0.1, affine=True, track_running_stats=True)
  (6): MaxPool2d(kernel_size=2, stride=2, padding=0, dilation=1, ceil_mode=False)
  (7): Dropout(p=0.25, inplace=False)
  (8): Conv2d(16, 32, kernel_size=(5, 5), stride=(1, 1), padding=(2, 2))
  (9): ReLU()
  (10): BatchNorm2d(32, eps=1e-05, momentum=0.1, affine=True, track_running_stats=True)
  (11): Conv2d(32, 64, kernel_size=(5, 5), stride=(1, 1), padding=(2, 2))
  (12): ReLU()
  (13): BatchNorm2d(64, eps=1e-05, momentum=0.1, affine=True, track_running_stats=True)
  (14): MaxPool2d(kernel_size=2, stride=2, padding=0, dilation=1, ceil_mode=False)
  (15): Dropout(p=0.25, inplace=False)
  (16): Conv2d(64, 128, kernel_size=(5, 5), stride=(1, 1), padding=(2, 2))
  (17): ReLU()
  (18): BatchNorm2d(128, eps=1e-05, momentum=0.1, affine=True, track_running_stats=True)
  (19): Conv2d(128, 256, kernel_size=(5, 5), stride=(1, 1), padding=(2, 2))
  (20): ReLU()
  (21): BatchNorm2d(256, eps=1e-05, momentum=0.1, affine=True, track_running_stats=True)
  (22): MaxPool2d(kernel_size=2, stride=2, padding=0, dilation=1, ceil_mode=False)
  (23): Dropout(p=0.35, inplace=False)
  (24): Flatten(start_dim=1, end_dim=-1)
  (25): Linear(in_features=4096, out_features=1024, bias=True)
  (26): ReLU()
  (27): Dropout(p=0.35, inplace=False)
  (28): Linear(in_features=1024, out_features=512, bias=True)
  (29): ReLU()
  (30): Dropout(p=0.45, inplace=False)
  (31): Linear(in_features=512, out_features=10, bias=True)
)
------------------------------------
Time: 0418-1027, device:cuda
Time spent: 862.20 seconds, Number of epochs: 50, Learning rate: 0.001, 
Model kernel size: 3, Model padding: 1, Model dropout: 0.3
train_losses: ['1.5875', '1.2014', '1.0264', '0.9283', '0.8621', '0.8151', '0.7856', '0.7593', '0.7341', '0.7208', '0.7006', '0.6777', '0.6732', '0.6550', 
…
