Time: 0415-2016, device:cpu
Time spent: 97.89 seconds, Number of epochs: 2, Learning rate: 0.001, Model kernel size: 3, Model padding: 1, Model dropout: 0.2
train_losses: ['1.5975', '1.1483']
val_losses: ['1.3743', '1.0134']
train_accuracies: ['0.5000', '0.6562']
val_accuracies: ['0.5000', '0.5625']
Model network: Sequential(
  (0): Conv2d(3, 6, kernel_size=(3, 3), stride=(1, 1), padding=(1, 1))
  (1): ReLU()
  (2): Conv2d(6, 12, kernel_size=(3, 3), stride=(1, 1), padding=(1, 1))
  (3): ReLU()
  (4): MaxPool2d(kernel_size=2, stride=2, padding=0, dilation=1, ceil_mode=False)
  (5): Dropout(p=0.2, inplace=False)
  (6): Conv2d(12, 24, kernel_size=(3, 3), stride=(1, 1), padding=(1, 1))
  (7): ReLU()
  (8): Conv2d(24, 32, kernel_size=(3, 3), stride=(1, 1), padding=(1, 1))
  (9): ReLU()
  (10): MaxPool2d(kernel_size=2, stride=2, padding=0, dilation=1, ceil_mode=False)
  (11): Dropout(p=0.2, inplace=False)
  (12): Conv2d(32, 64, kernel_size=(3, 3), stride=(1, 1), padding=(1, 1))
  (13): ReLU()
  (14): Conv2d(64, 128, kernel_size=(3, 3), stride=(1, 1), padding=(1, 1))
  (15): ReLU()
  (16): MaxPool2d(kernel_size=2, stride=2, padding=0, dilation=1, ceil_mode=False)
  (17): Dropout(p=0.2, inplace=False)
  (18): BatchNorm2d(128, eps=1e-05, momentum=0.1, affine=True, track_running_stats=True)
  (19): Flatten(start_dim=1, end_dim=-1)
  (20): Linear(in_features=2048, out_features=1024, bias=True)
  (21): ReLU()
  (22): Linear(in_features=1024, out_features=512, bias=True)
  (23): ReLU()
  (24): Linear(in_features=512, out_features=10, bias=True)
)
------------------------------------
Time: 0415-2021, device:cpu
Time spent: 52.55 seconds, Number of epochs: 1, Learning rate: 0.001, 
Model kernel size: 3, Model padding: 1, Model dropout: 0.2
train_losses: ['1.5692']
val_losses: ['1.2051']
train_accuracies: ['0.5781']
val_accuracies: ['0.5625']
Model network: Sequential(
  (0): Conv2d(3, 6, kernel_size=(3, 3), stride=(1, 1), padding=(1, 1))
  (1): ReLU()
  (2): Conv2d(6, 12, kernel_size=(3, 3), stride=(1, 1), padding=(1, 1))
  (3): ReLU()
  (4): MaxPool2d(kernel_size=2, stride=2, padding=0, dilation=1, ceil_mode=False)
  (5): Dropout(p=0.2, inplace=False)
  (6): Conv2d(12, 24, kernel_size=(3, 3), stride=(1, 1), padding=(1, 1))
  (7): ReLU()
  (8): Conv2d(24, 32, kernel_size=(3, 3), stride=(1, 1), padding=(1, 1))
  (9): ReLU()
  (10): MaxPool2d(kernel_size=2, stride=2, padding=0, dilation=1, ceil_mode=False)
  (11): Dropout(p=0.2, inplace=False)
  (12): Conv2d(32, 64, kernel_size=(3, 3), stride=(1, 1), padding=(1, 1))
  (13): ReLU()
  (14): Conv2d(64, 128, kernel_size=(3, 3), stride=(1, 1), padding=(1, 1))
  (15): ReLU()
  (16): MaxPool2d(kernel_size=2, stride=2, padding=0, dilation=1, ceil_mode=False)
  (17): Dropout(p=0.2, inplace=False)
  (18): BatchNorm2d(128, eps=1e-05, momentum=0.1, affine=True, track_running_stats=True)
  (19): Flatten(start_dim=1, end_dim=-1)
  (20): Linear(in_features=2048, out_features=1024, bias=True)
  (21): ReLU()
  (22): Linear(in_features=1024, out_features=512, bias=True)
  (23): ReLU()
  (24): Linear(in_features=512, out_features=10, bias=True)
)
------------------------------------
Time: 0415-2023, device:cpu
Time spent: 54.78 seconds, Number of epochs: 1, Learning rate: 0.001, 
Model kernel size: 3, Model padding: 1, Model dropout: 0.2
train_losses: ['1.5755']
val_losses: ['0.9714']
train_accuracies: ['0.6094']
val_accuracies: ['0.5625']
Model network: Sequential(
  (0): Conv2d(3, 6, kernel_size=(3, 3), stride=(1, 1), padding=(1, 1))
  (1): ReLU()
  (2): Conv2d(6, 12, kernel_size=(3, 3), stride=(1, 1), padding=(1, 1))
  (3): ReLU()
  (4): MaxPool2d(kernel_size=2, stride=2, padding=0, dilation=1, ceil_mode=False)
  (5): Dropout(p=0.2, inplace=False)
  (6): Conv2d(12, 24, kernel_size=(3, 3), stride=(1, 1), padding=(1, 1))
  (7): ReLU()
  (8): Conv2d(24, 32, kernel_size=(3, 3), stride=(1, 1), padding=(1, 1))
  (9): ReLU()
  (10): MaxPool2d(kernel_size=2, stride=2, padding=0, dilation=1, ceil_mode=False)
  (11): Dropout(p=0.2, inplace=False)
  (12): Conv2d(32, 64, kernel_size=(3, 3), stride=(1, 1), padding=(1, 1))
  (13): ReLU()
  (14): Conv2d(64, 128, kernel_size=(3, 3), stride=(1, 1), padding=(1, 1))
  (15): ReLU()
  (16): MaxPool2d(kernel_size=2, stride=2, padding=0, dilation=1, ceil_mode=False)
  (17): Dropout(p=0.2, inplace=False)
  (18): BatchNorm2d(128, eps=1e-05, momentum=0.1, affine=True, track_running_stats=True)
  (19): Flatten(start_dim=1, end_dim=-1)
  (20): Linear(in_features=2048, out_features=1024, bias=True)
  (21): ReLU()
  (22): Linear(in_features=1024, out_features=512, bias=True)
  (23): ReLU()
  (24): Linear(in_features=512, out_features=10, bias=True)
)
------------------------------------
Time: 0415-2024, device:cpu
Time spent: 52.12 seconds, Number of epochs: 1, Learning rate: 0.001, 
Model kernel size: 3, Model padding: 1, Model dropout: 0.2
train_losses: ['1.5616']
val_losses: ['1.1755']
train_accuracies: ['0.5312']
val_accuracies: ['0.5000']
Model network: Sequential(
  (0): Conv2d(3, 6, kernel_size=(3, 3), stride=(1, 1), padding=(1, 1))
  (1): ReLU()
  (2): Conv2d(6, 12, kernel_size=(3, 3), stride=(1, 1), padding=(1, 1))
  (3): ReLU()
  (4): MaxPool2d(kernel_size=2, stride=2, padding=0, dilation=1, ceil_mode=False)
  (5): Dropout(p=0.2, inplace=False)
  (6): Conv2d(12, 24, kernel_size=(3, 3), stride=(1, 1), padding=(1, 1))
  (7): ReLU()
  (8): Conv2d(24, 32, kernel_size=(3, 3), stride=(1, 1), padding=(1, 1))
  (9): ReLU()
  (10): MaxPool2d(kernel_size=2, stride=2, padding=0, dilation=1, ceil_mode=False)
  (11): Dropout(p=0.2, inplace=False)
  (12): Conv2d(32, 64, kernel_size=(3, 3), stride=(1, 1), padding=(1, 1))
  (13): ReLU()
  (14): Conv2d(64, 128, kernel_size=(3, 3), stride=(1, 1), padding=(1, 1))
  (15): ReLU()
  (16): MaxPool2d(kernel_size=2, stride=2, padding=0, dilation=1, ceil_mode=False)
  (17): Dropout(p=0.2, inplace=False)
  (18): BatchNorm2d(128, eps=1e-05, momentum=0.1, affine=True, track_running_stats=True)
  (19): Flatten(start_dim=1, end_dim=-1)
  (20): Linear(in_features=2048, out_features=1024, bias=True)
  (21): ReLU()
  (22): Linear(in_features=1024, out_features=512, bias=True)
  (23): ReLU()
  (24): Linear(in_features=512, out_features=10, bias=True)
)
------------------------------------
Time: 0415-2116, device:cpu
Time spent: 49.58 seconds, Number of epochs: 1, Learning rate: 0.001, 
Model kernel size: 3, Model padding: 1, Model dropout: 0.2
train_losses: ['1.6043']
val_losses: ['1.2703']
train_accuracies: ['0.4121']
val_accuracies: ['0.5223']
Model network: Sequential(
  (0): Conv2d(3, 6, kernel_size=(3, 3), stride=(1, 1), padding=(1, 1))
  (1): ReLU()
  (2): Conv2d(6, 12, kernel_size=(3, 3), stride=(1, 1), padding=(1, 1))
  (3): ReLU()
  (4): MaxPool2d(kernel_size=2, stride=2, padding=0, dilation=1, ceil_mode=False)
  (5): Dropout(p=0.2, inplace=False)
  (6): Conv2d(12, 24, kernel_size=(3, 3), stride=(1, 1), padding=(1, 1))
  (7): ReLU()
  (8): Conv2d(24, 32, kernel_size=(3, 3), stride=(1, 1), padding=(1, 1))
  (9): ReLU()
  (10): MaxPool2d(kernel_size=2, stride=2, padding=0, dilation=1, ceil_mode=False)
  (11): Dropout(p=0.2, inplace=False)
  (12): Conv2d(32, 64, kernel_size=(3, 3), stride=(1, 1), padding=(1, 1))
  (13): ReLU()
  (14): Conv2d(64, 128, kernel_size=(3, 3), stride=(1, 1), padding=(1, 1))
  (15): ReLU()
  (16): MaxPool2d(kernel_size=2, stride=2, padding=0, dilation=1, ceil_mode=False)
  (17): Dropout(p=0.2, inplace=False)
  (18): BatchNorm2d(128, eps=1e-05, momentum=0.1, affine=True, track_running_stats=True)
  (19): Flatten(start_dim=1, end_dim=-1)
  (20): Linear(in_features=2048, out_features=1024, bias=True)
  (21): ReLU()
  (22): Linear(in_features=1024, out_features=512, bias=True)
  (23): ReLU()
  (24): Linear(in_features=512, out_features=10, bias=True)
)
------------------------------------
Time: 0415-2204, device:cpu
Time spent: 49.08 seconds, Number of epochs: 1, Learning rate: 0.001, 
Model kernel size: 3, Model padding: 1, Model dropout: 0.2
train_losses: ['1.5643']
val_losses: ['1.2662']
train_accuracies: ['0.4248']
val_accuracies: ['0.4964']
airplane: [734, 36, 20, 4, 12, 9, 13, 24, 38, 83], accuracy: 0.7543679342240494
…
bird: [114, 11, 182, 34, 206, 72, 242, 54, 22, 69], accuracy: 0.18091451292246521
cat: [41, 10, 27, 91, 69, 185, 328, 70, 23, 123], accuracy: 0.09410548086866598
deer: [47, 11, 25, 11, 310, 25, 323, 171, 7, 33], accuracy: 0.32191069574247144
dog: [18, 12, 18, 47, 84, 409, 220, 119, 8, 89], accuracy: 0.3994140625
frog: [20, 8, 9, 12, 46, 21, 819, 23, 5, 62], accuracy: 0.7990243902439025
horse: [25, 8, 6, 14, 62, 65, 122, 625, 5, 103], accuracy: 0.6038647342995169
ship: [335, 82, 4, 6, 3, 5, 9, 7, 396, 151], accuracy: 0.3967935871743487
truck: [70, 117, 2, 1, 1, 1, 34, 25, 2, 746], accuracy: 0.7467467467467468
Total acc: 0.0004942686699177613
Model network: Sequential(
  (0): Conv2d(3, 6, kernel_size=(3, 3), stride=(1, 1), padding=(1, 1))
  (1): ReLU()
  (2): Conv2d(6, 12, kernel_size=(3, 3), stride=(1, 1), padding=(1, 1))
  (3): ReLU()
  (4): MaxPool2d(kernel_size=2, stride=2, padding=0, dilation=1, ceil_mode=False)
  (5): Dropout(p=0.2, inplace=False)
  (6): Conv2d(12, 24, kernel_size=(3, 3), stride=(1, 1), padding=(1, 1))
  (7): ReLU()
  (8): Conv2d(24, 32, kernel_size=(3, 3), stride=(1, 1), padding=(1, 1))
  (9): ReLU()
  (10): MaxPool2d(kernel_size=2, stride=2, padding=0, dilation=1, ceil_mode=False)
  (11): Dropout(p=0.2, inplace=False)
  (12): Conv2d(32, 64, kernel_size=(3, 3), stride=(1, 1), padding=(1, 1))
  (13): ReLU()
  (14): Conv2d(64, 128, kernel_size=(3, 3), stride=(1, 1), padding=(1, 1))
  (15): ReLU()
  (16): MaxPool2d(kernel_size=2, stride=2, padding=0, dilation=1, ceil_mode=False)
  (17): Dropout(p=0.2, inplace=False)
  (18): BatchNorm2d(128, eps=1e-05, momentum=0.1, affine=True, track_running_stats=True)
  (19): Flatten(start_dim=1, end_dim=-1)
  (20): Linear(in_features=2048, out_features=1024, bias=True)
  (21): ReLU()
  (22): Linear(in_features=1024, out_features=512, bias=True)
  (23): ReLU()
  (24): Linear(in_features=512, out_features=10, bias=True)
)
------------------------------------
